model.tar (torch, 441554 bytes, 44 tensors)

encoder.embeddings.weight f4 [21, 10]
000000 43 a6 e2 3e ff 3b 55 bd 8a 56 bb bf 79 33 b0 3e
       0.44267473 -0.05205917 -1.4635785 0.3441427
000010 64 90 27 bf 8c a0 ef be d2 1e 73 3f 1e a3 04 3f
       -0.654547 -0.46802175 0.94968903 0.518114
000020 07 47 01 c0 1c 71 0b c0 ef b0 c1 3c 34 cd 42 be
       -2.0199602 -2.1787786 0.023643939 -0.19023591
000030 e7 44 8f 40 44 4c 64 3d fd e6 9c bc d3 b1 a1 bc
       4.477161 0.055736795 -0.019153113 -0.019738114
000040 9a e5 79 be b0 98 7a bd a0 7c d3 c0 06 7f 27 3f
       -0.24403992 -0.06118077 -6.608963 0.654282
000050 1f dc af 3d 40 f5 01 c1 6b 45 39 3f 1a fe 0b 3f
       0.08586907 -8.1223755 0.7237155 0.54684603
000060 12 24 90 bd 77 2e 49 bd 16 04 9f 3b d6 34 9f 3c
       -0.0703813 -0.049116578 0.004852782 0.019434374
000070 a4 ea 57 bd c2 45 03 40 dd 33 91 3c 65 bd 20 be
       -0.052714005 2.0511327 0.017724926 -0.15697248
000080 cb a6 94 3f 5d 33 c6 bf 8a 7f aa bc 3e 31 b5 bc
       1.1613401 -1.5484425 -0.020812768 -0.022118207
000090 d4 49 14 3d d6 af fb 3c b2 a0 3c 40 68 d8 d4 40
       0.03620322 0.030723494 2.947308 6.651417
0000a0 a4 73 b9 ba f1 ea 36 bd 06 0f 0d 40 53 1e 99 be
       -0.0014148843 -0.04465765 2.204042 -0.29905948
0000b0 5a c7 c4 3b a3 bb 62 3c ba 82 3d bc cf 18 47 bc
       0.00600521 0.013838681 -0.011566812 -0.012151911
0000c0 c1 df 26 3e 28 98 71 3c f6 57 d8 c0 f0 d8 ee 3d
       0.16296293 0.0147457495 -6.7607374 0.11662471
0000d0 ff a6 ee c0 5c 19 28 40 79 f2 20 40 0b 99 84 40
       -7.4578853 2.6265478 2.5147994 4.143682
0000e0 7d 11 74 c1 07 88 92 c0 70 b5 4b 40 65 b1 de c0
       -15.25427 -4.579105 3.182949 -6.9591546
0000f0 ef c8 99 3e 4e 0b 94 c0 e2 b8 47 be 90 9c 7e 3e
       0.30036113 -4.62638 -0.19504121 0.24864411
000100 1b f0 df be 5d 59 9d be ca 44 89 3e 66 15 3d 41
       -0.43737873 -0.3073224 0.26810294 11.817724
000110 b4 39 98 3d 75 a5 0f be 5e 79 41 41 43 a7 a4 bf
       0.07432881 -0.1402796 12.092131 -1.2863544
000120 ab 7e 8d c0 25 cb 73 40 65 52 09 c1 d7 6c e1 c0
       -4.4217124 3.809274 -8.582616 -7.044536
000130 36 9d d2 40 ec 13 5b 41 e7 cb 67 c1 b1 7a c3 40
       6.581691 13.692364 -14.487281 6.108727
000140 58 f7 a5 c0 bc fc 64 41 56 6b e0 40 41 c0 1d c0
       -5.1864433 14.311703 7.0131025 -2.4648592
000150 e2 76 5a 41 20 f0 5e 41 74 91 df c0 21 c1 72 c1
       13.654024 13.933624 -6.9865055 -15.172151
000160 11 66 15 41 ad 17 1f 40 77 3d 07 41 82 0b 2d bc
       9.337419 2.48582 8.452506 -0.010561826
000170 df 81 6c 3f 90 83 54 bf 4e 04 d1 c0 d0 33 10 c1
       0.9238567 -0.8301325 -6.5317755 -9.01265
000180 38 de b6 40 02 fa 43 40 e6 ac 1a 3f 4e 30 b3 bf
       5.7146263 3.0621343 0.6042007 -1.3999116
000190 e8 fb 8c c0 2f 81 95 40 d2 4f 69 3e 94 8c f0 40
       -4.4057503 4.6720195 0.22784355 7.5171604
0001a0 2c 7c 2a 41 3d 8b 06 41 f7 ab 8d c0 e8 a5 a2 c0
       10.655315 8.408994 -4.427242 -5.082752
0001b0 c5 b0 c0 be 68 d0 f8 3b 82 80 81 bf 74 d7 3a 40
       -0.37634864 0.0075932033 -1.0117342 2.9194002
0001c0 09 8d 06 40 39 d8 ee c0 b4 00 b0 3f 9f d1 ab 3f
       2.102358 -7.4638944 1.3750215 1.3423346
0001d0 f0 38 a1 bf bc f5 54 bd 6a 01 43 c0 e1 61 b7 40
       -1.2595501 -0.051992163 -3.0469613 5.730698
0001e0 04 92 22 3f fc fa 49 c1 53 f7 80 bd 36 7a 3a bf
       0.6350405 -12.6237755 -0.06297173 -0.7284273
0001f0 1b 01 ff bf fe b3 45 bf 53 00 b9 3e 49 0d a2 40
       -1.9922212 -0.7722777 0.3613306 5.0641217
000200 11 fb 01 be f1 35 99 be 88 03 2c bd 91 59 c5 3d
       -0.1269343 -0.29923967 -0.041995555 0.09636224
000210 13 ac 3d be 75 fd 15 40 5f f5 72 3d c1 df 8b 3d
       -0.18522672 2.3435948 0.059316035 0.06829787
000220 3f c6 f4 bb 50 d7 92 bd 5e ee 3b be 5a be a6 3c
       -0.007469922 -0.07169974 -0.18352649 0.020354439
000230 a0 e0 1b 40 a5 34 fa bc 04 09 49 bd df 42 95 3e
       2.435585 -0.030542681 -0.049080864 0.2915258
000240 e5 eb 59 c0 c2 0f c7 bf 77 90 a3 3e 83 39 a0 3e
       -3.4050229 -1.5551684 0.31946155 0.31293878
000250 17 78 ab bf 36 51 5f be a5 75 17 41 f3 2c fb c0
       -1.3396024 -0.21808323 9.466222 -7.849237
000260 d6 93 7c c0 a4 b3 5b 40 31 d2 5c c1 c2 f2 9c c1
       -3.9465232 3.4328394 -13.801316 -19.618534
000270 0f ad 8e 41 14 28 58 41 d6 7e 1c c1 58 5d 52 41
       17.834501 13.509785 -9.780966 13.147789
000280 55 5b 41 3e 11 35 91 c0 f8 cc 95 be 68 cf 35 bd
       0.18882497 -4.537728 -0.2925794 -0.04438725
000290 f2 30 94 be 31 37 67 be 0c e9 25 3e 7b c3 55 3e
       -0.28943592 -0.22579648 0.16202182 0.20875351
0002a0 db 8f 81 c0 53 e3 1d be a6 45 9c 3c 00 3a 62 bf
       -4.0488105 -0.15418749 0.01907618 -0.8836975
0002b0 96 ca 33 bc 32 1d f7 3d 8c 7a ba bc 47 d5 cd bc
       -0.010973593 0.120661154 -0.022763513 -0.025126113
0002c0 20 45 87 3c ff e1 0b 3c 08 bd 61 bd a2 26 d5 3f
       0.016512454 0.008537768 -0.055111915 1.6652415
0002d0 38 17 1d bf db 07 34 3f d0 c9 7a bf 48 25 37 bf
       -0.61363554 0.70324486 -0.9796419 -0.7154126
0002e0 06 10 63 3f 4c ce 54 3f 0e 81 47 bf e0 d3 41 bf
       0.88696325 0.83127284 -0.77931297 -0.7571392
0002f0 31 ae ce 3d fe ce 6e 3e 0f a8 8d c1 cf 56 08 c0
       0.10091818 0.23321149 -17.70706 -2.1302984
000300 70 69 81 c1 a6 5b a5 40 e9 99 86 3f ce fa 87 3f
       -16.176483 5.1674376 1.051572 1.0623415
000310 22 a3 26 c0 09 8b 9f bf 14 29 c7 40 dd c8 ff c0
       -2.6037068 -1.2464305 6.2237644 -7.9932694
000320 54 85 03 bf 2f 35 d0 3f 39 a1 62 bc 7d c9 63 c0
       -0.5137532 1.626623 -0.013832384 -3.5591729
000330 72 68 13 3f 23 db 36 3f e9 a0 0f bf f2 6a 8e bf
       0.57581246 0.71428126 -0.56104904 -1.1126387
000340 60 65 4c 3d fb c3 30 40
       0.049901366 2.7619617

encoder.lstm.weight_ih_l0 f4 [192, 10]
000000 d2 f2 9d 40 ee 3b 66 c0 32 0f d3 3e 5f de 94 40
       4.935891 -3.5974078 0.4122253 4.652145
000010 ab 0b a5 c0 55 50 8c c0 4b ef 95 40 65 d8 61 40
       -5.1576743 -4.384806 4.6854606 3.5288327
000020 0c 2c 12 c0 eb 80 87 bf 6e 40 30 3f c2 6a 24 40
       -2.2839384 -1.0586218 0.6884831 2.569016
000030 a4 1f 13 40 35 c9 2e 3f f3 0b 3e 3f bf 09 1e 3f
       2.2988062 0.6827577 0.74236983 0.6173362
000040 80 66 f4 3e 7b 44 60 bf 44 de 3b 3d 15 60 8f 3f
       0.4773445 -0.8760449 0.045866266 1.1201197
000050 15 1e 03 c0 cf fb 17 3e 75 2d 0d bf 58 f1 f4 3e
       -2.048711 0.14842151 -0.55147487 0.4784038
000060 68 c8 c2 3f cd f0 96 3f 50 aa 80 bf b8 f7 e0 bf
       1.5217409 1.1792237 -1.0051975 -1.7575598
000070 6d 58 3e 3e eb 87 e5 be 22 5b 28 3d 7b d8 ee 3f
       0.1858842 -0.4483026 0.041102536 1.8659815
000080 b9 83 66 c0 94 da fa 3e 40 e8 8b bd e2 1a fb bb
       -3.6017897 0.48994887 -0.068314075 -0.007663117
000090 83 32 83 3d bd 2b 74 40 28 ce a2 bf af c5 92 40
       0.06406119 3.8151696 -1.2719164 4.5866313
0000a0 ab 04 91 40 89 74 40 c0 3d d3 ef 3e c5 22 c2 40
       4.53182 -3.0071127 0.4684085 6.0667443
0000b0 b1 a7 3c c0 32 a7 af c0 74 88 40 40 f9 03 73 40
       -2.947735 -5.4891596 3.0083284 3.7971175
0000c0 5f 83 c7 3d 72 68 d4 bf 50 db 0e 40 91 0f 0f c0
       0.09741854 -1.6594374 2.2321358 -2.235325
0000d0 ef 52 b9 3e c9 ec 06 bf 5f 69 b5 bf f0 41 af bf
       0.36196086 -0.52705055 -1.4172782 -1.3691998
0000e0 82 2a a4 bf 9d 39 d0 3d d9 0f a1 bf 40 61 00 be
       -1.2825472 0.10167239 -1.2582961 -0.12537098
0000f0 2b 24 70 3e fe ee 1e c0 17 90 9d bf 0b 4c b9 bf
       0.23451297 -2.483337 -1.2309598 -1.4476331
000100 25 3f b3 bf 34 d2 0b bf 1e d2 73 3f e1 1f d4 3e
       -1.4003645 -0.5461762 0.9524249 0.41430572
000110 0a 2e 92 bf 84 24 b8 3e 24 bf 2e bf b3 21 86 bf
       -1.14203 0.3596536 -0.6826041 -1.0479034
000120 5b d3 e0 c0 2a 68 41 bd 39 e2 d3 bd d7 54 cb bd
       -7.0258 -0.04721848 -0.10345883 -0.09928291
000130 3b 01 80 bc 27 15 86 bb 5f c8 f5 bd 67 50 98 c0
       -0.015625587 -0.004091877 -0.120011084 -4.7598147
000140 a0 5b 0e c0 05 97 fa 3f e7 12 78 3d c8 e7 06 c0
       -2.2243423 1.9577338 0.0605649 -2.1078968
000150 09 1a f3 3e 98 91 7a be 0c be 07 c0 98 f7 86 3f
       0.474808 -0.24469602 -2.1209745 1.054431
000160 69 dc 67 3e d2 77 cd 3e d2 33 d1 be 55 5e df be
       0.22642674 0.40130478 -0.40859848 -0.43626657
000170 89 64 7f be fb 1a 9b c0 5d 06 a3 be 68 ff c8 be
       -0.24940695 -4.8470435 -0.31840792 -0.3925736
000180 e5 69 5c be f8 80 ba 3b e0 e3 a6 3d 6d d8 37 be
       -0.2152477 0.005691644 0.081489325 -0.17953654
000190 a5 3a 18 c0 58 64 f8 3f 3d 52 3a 40 6e 9b 0e 3e
       -2.3785794 1.9405622 2.9112694 0.13926479
0001a0 61 5b 63 40 02 ef 14 40 58 08 5a bf 1c d2 1b c0
       3.5524523 2.3270879 -0.8516898 -2.434699
0001b0 87 e8 67 3f 5c b5 99 bf 67 99 c0 3f 11 78 14 bf
       0.90589184 -1.2008471 1.5046815 -0.57995707
0001c0 e2 ae 36 3f d1 a3 39 3f ee d2 b7 bf 02 99 6c bf
       0.713606 0.7251559 -1.4361246 -0.9242097
0001d0 70 e7 f2 3f 79 95 88 3f 41 ab 36 bf a7 fe 9e be
       1.8976879 1.0670615 -0.7135506 -0.3105366
0001e0 1f 12 a0 3f c9 24 4a bf 59 27 b9 3f 9d ed 41 3f
       1.250553 -0.7896238 1.4465133 0.75753194
0001f0 6f 97 f6 be 8a 29 8c bf 0e 39 15 3f 11 3b 50 3f
       -0.4816241 -1.0950177 0.58290184 0.8134013
000200 ec 8a b4 3d 9b c0 51 bf 4c a4 6d 3e 72 e8 3e be
       0.0881556 -0.8193452 0.23207206 -0.18643358
000210 a2 5a 33 be e1 18 85 3e 03 5d c3 bd 1c 1c 1e 40
       -0.17515042 0.25995544 -0.09539225 2.4704657
000220 ea 02 f0 3d f6 08 ee c0 a8 cb 27 be 44 87 d1 c0
       0.11719306 -7.438594 -0.16386282 -6.547762
000230 f0 ef 3c c0 bf 05 f3 bf d9 38 31 40 d6 85 a9 bf
       -2.9521446 -1.8986129 2.7690947 -1.3243968
000240 7c a1 bb 3f 70 16 1d 40 8f 7e 69 c0 99 61 55 bf
       1.4658656 2.4544945 -3.6483495 -0.8335205
000250 ea 08 23 3d d9 0c e6 3f 7a ee 38 c0 b4 f5 cd 3f
       0.039803423 1.7972671 -2.8895555 1.6090608
000260 ab ed 95 3f 50 f0 58 bf 88 54 ea 3e b1 1e 57 3f
       1.1713156 -0.8474169 0.45767617 0.84031206
000270 f0 ad 87 bf 27 92 81 bf c7 72 33 3f 0b 7f 88 bf
       -1.0599957 -1.0122727 0.7009701 -1.066377
000280 f6 3b a7 40 be b9 5a 3f a6 55 8f 3f 9f 31 0f 3f
       5.2260695 0.8543967 1.1198013 0.5593509
000290 6f 4c df bf a7 ec c6 bf ce 1c 22 3e 95 f9 b7 be
       -1.7445201 -1.554097 0.158313 -0.35932603
0002a0 db 36 ce bf e4 15 e8 3f 0a dc 0b 3f 67 1e a6 bf
       -1.611049 1.813168 0.5463263 -1.2978028
0002b0 16 74 e9 3e 65 1e 6e bf af 2d e0 be 16 61 80 bf
       0.4559638 -0.9301513 -0.43784854 -1.0029628
0002c0 5d a6 64 3f ec da 7f 3f 59 7d 88 bf e4 61 04 be
       0.8931635 0.99943423 -1.0663253 -0.12927967
0002d0 50 bb 9e be 9a 86 84 3e 75 9c 97 3f b2 a9 6f be
       -0.31002283 0.25883943 1.1844622 -0.23404577
0002e0 bc a9 7e 3f 19 3a fe 3e 01 2c 10 3e 25 be 23 bf
       0.99477744 0.496537 0.14079286 -0.6396201
0002f0 32 93 80 3e 87 d9 b8 3f 51 ec 90 bd 3a d2 38 3c
       0.251123 1.4441384 -0.07076324 0.011280591
000300 00 4c 24 be d5 47 1a 3f 03 c7 3c be e3 8e 46 be
       -0.16044617 0.60265857 -0.18435292 -0.19390444
000310 69 07 a9 3e ae 39 ce 3d 57 4c d2 bf 86 c0 6a 3f
       0.33013466 0.10069595 -1.6429547 0.9170002
000320 4b fa f7 bc 50 b4 5f c0 2a 71 49 3e b6 8d bb be
       -0.030270716 -3.4953804 0.19672075 -0.36631554
000330 79 28 c6 3d bc f2 9b bf 63 64 24 c0 bc c5 09 be
       0.09675688 -1.2183452 -2.568627 -0.13454336
000340 a8 44 47 bd 70 22 99 bb 72 70 cd 3f ef f1 fd bf
       -0.04864946 -0.0046732947 1.604994 -1.9839457
000350 95 bc 10 3e a1 3f 86 bf 97 b8 3d c0 f7 af 8a bf
       0.14134438 -1.0488168 -2.9643915 -1.083495
000360 74 c1 38 3e 46 4f 3d 40 73 6b 9c be 2a 7d db bd
       0.18042547 2.9579635 -0.30550727 -0.107172325
000370 7c 0c d8 3f 6a 9f 1c c0 8c 02 78 bf b4 97 f4 3e
       1.687881 -2.4472299 -0.96878886 0.4777199
000380 76 04 13 bf c3 03 af bf 32 26 83 40 7e db 72 40
       -0.5742868 -1.3673023 4.0984125 3.7946467
000390 c5 42 c2 be 10 dd 67 bf e6 6c 20 40 65 ca 0b bf
       -0.37941566 -0.9057169 2.5066466 -0.54605705
0003a0 41 9c f8 3e e4 33 61 40 65 42 42 bf d5 e6 70 bf
       0.48556712 3.5187922 -0.7588256 -0.9410222
0003b0 a4 09 ac 3f b1 53 c4 3f 63 fc 4e c0 54 bd 8f 3e
       1.3440442 1.533804 -3.2341545 0.28074133
0003c0 cd 3b f4 3f 41 37 55 3f 2b f5 44 3f 10 a2 f6 bf
       1.908075 0.83287436 0.76936597 -1.9268208
0003d0 ed 45 49 bf 1e 88 38 bf 71 e7 ba 3f 30 49 7e 3e
       -0.78622323 -0.720827 1.460188 0.24832606
0003e0 33 75 55 c0 75 90 aa bf 43 88 18 be 34 56 26 3f
       -3.3352783 -1.3325335 -0.1489573 0.64975286
0003f0 d4 5c fe 3f 19 56 08 bf cf a1 ca 3e 75 10 08 3f
       1.9872079 -0.53256375 0.39576575 0.5315011

encoder.lstm.weight_hh_l0 f4 [192, 48]
000000 e9 06 0f be f4 44 e7 3e 83 38 46 3d 9b b4 39 3d
       -0.1396748 0.45169795 0.048393738 0.045338254
000010 16 ce 14 be e9 d8 00 3f b2 68 84 be 69 04 cb be
       -0.1453174 0.5033098 -0.25861126 -0.39651802
000020 a5 c8 30 3c 62 b8 3f be d1 d6 6d bd 70 37 c9 3e
       0.010790025 -0.1872268 -0.058066193 0.39300108
000030 23 b0 88 3e 7e 43 84 3e 88 62 d9 3e f4 6a 75 bf
       0.26696882 0.25832742 0.42457986 -0.9586632
000040 8c bb af 3d 1d f3 d9 be 31 ba 51 bf 07 ed 3d 3e
       0.085806936 -0.42568293 -0.8192473 0.1854745
000050 09 ca 7d 3e cd 81 5a 3e 86 6c a8 3e ee 92 97 3c
       0.24784102 0.21338578 0.32895297 0.018502679
000060 d0 6e bf 3f 2b c3 10 40 55 00 70 3e 3a bd 99 3f
       1.4955692 2.261912 0.23437627 1.2010872
000070 6b a4 43 3f a9 6b 3b bf de ec 2f 3f 04 70 53 3f
       0.76422757 -0.7321115 0.68720806 0.825928
000080 28 d3 27 c0 09 14 4f 3d 00 64 87 be f1 54 fd be
       -2.622263 0.050556216 -0.2644348 -0.49478868
000090 1e 67 5f bf e6 77 5f 3d 04 d7 c6 bd db f3 58 3e
       -0.8726672 0.054557703 -0.0970898 0.21186773
0000a0 7b f8 ba 3e aa 78 52 be 63 ee f5 be db 65 93 3d
       0.365177 -0.20553842 -0.48033437 0.07197162
0000b0 10 3f d5 3d 96 29 73 3b 4b 3e 81 3e 7a aa 21 3f
       0.10412419 0.0037103645 0.25242838 0.6315075
0000c0 3d 97 40 3f aa 65 a9 bf df 6a 1c bf 24 1e 26 40
       0.7523077 -1.323415 -0.6110057 2.5955896
0000d0 fc ce 62 bf 05 a8 1c 3f 11 93 35 bd 27 75 3e c0
       -0.88597083 0.6119388 -0.044329707 -2.9759004
0000e0 1a 41 d2 bf 1f b0 7e c0 d3 9b f0 3f 14 9d 0a bd
       -1.6426117 -3.9794996 1.8797554 -0.033841208
0000f0 e1 b6 24 3f 46 e1 88 bd 3b 63 8f bf ce 5b 44 c0
       0.6434155 -0.066835925 -1.1202158 -3.0681033
000100 85 45 c5 c0 8e c5 85 bf 8b 05 29 40 bf 71 3c 3f
       -6.1647363 -1.0450914 2.6409633 0.7361106
000110 02 8c 98 bf 2c 11 87 3f 35 5a 79 40 3e 16 36 c0
       -1.1917727 1.0552115 3.8961308 -2.8451076
000120 ea 13 ba 3d f6 74 11 41 4c a9 2d 40 f4 7e 9a bf
       0.090858296 9.091055 2.713458 -1.2069993
000130 c2 fe 28 3f f8 97 3e bf eb cc 24 40 b7 00 6f c0
       0.6601373 -0.74450636 2.5750072 -3.7344186
000140 1a 0e b7 c0 e2 43 73 be 41 79 29 40 dd 8c b6 3f
       -5.7204714 -0.23756364 2.6480258 1.4261738
000150 8f 6c 68 bd 55 f6 23 40 31 a3 d5 be da c8 72 3f
       -0.056744155 2.56191 -0.41726068 0.94837725
000160 ef 84 27 c0 52 c0 99 3e 31 da 52 bf 01 8b 2d c0
       -2.6174886 0.3002954 -0.82364184 -2.7116091
000170 bf bb dd bf a3 66 9d bf a8 d2 4d bf 35 06 13 bc
       -1.732292 -1.2296947 -0.8039956 -0.008973648
000180 86 dd 43 3f 86 99 78 be 76 57 9e 3f eb cb ab be
       0.7650989 -0.24277315 1.2370441 -0.33554015
000190 0b c8 b1 bf 69 4b 0d bf 3c cc ee 3e ec 72 ae 3f
       -1.3889173 -0.5519319 0.46640193 1.3628821
0001a0 27 86 1e 40 35 da dd 3f 03 a7 13 41 8b 47 71 be
       2.476938 1.7332217 9.228274 -0.23562448
0001b0 f7 1a f1 be a2 79 43 3e 3b 13 02 40 5a 45 89 3e
       -0.47090885 0.19089368 2.0324237 0.26810724
0001c0 5f bb d5 bf 6e 77 fe 3f a8 96 2a 3e 86 ac 7a 3e
       -1.6697806 1.9880197 0.16659033 0.24479875
0001d0 91 32 52 c0 ac ce 14 be 78 d7 61 c0 09 9b a2 3e
       -3.2843363 -0.14531964 -3.5287762 0.31758907
0001e0 92 a5 aa bd 56 85 31 3f 85 89 30 c0 fe b4 2f c0
       -0.08332361 0.6934408 -2.7583935 -2.745422
0001f0 5d a9 c9 3c 7b 91 4a bf c5 34 a6 3c b8 c3 64 bf
       0.024616892 -0.79128236 0.020288834 -0.89361143
000200 80 4d 04 c0 94 f0 5e 3f ef cb 34 bf da 39 1c bf
       -2.0672302 0.87085843 -0.7062368 -0.61025774
000210 18 b6 74 40 08 20 58 c0 51 e5 3d bf 5e ac 06 bf
       3.8236141 -3.376955 -0.74178034 -0.5260676
000220 7c cc a8 3e d9 41 63 3f 66 3c 9b c0 03 48 45 c0
       0.3296851 0.8877235 -4.851123 -3.0825202
000230 4e ca c6 c0 a5 de 03 3e f5 ae 94 40 8e 4a c2 bd
       -6.2121954 0.12877901 4.646357 -0.094868764
000240 25 93 8e bf 1b 4b 1a 40 e8 ad ec be db 85 86 3e
       -1.1138655 2.410834 -0.4622643 0.26274
000250 1b b8 86 bf 5b a4 d3 bf 87 44 c2 3b 48 8a 49 3f
       -1.0524935 -1.6534532 0.0059285793 0.78726625
000260 fa 50 30 40 c8 c3 ee 3e e2 9f 89 3e bd bd 10 c0
       2.7549424 0.46633744 0.26879793 -2.2615807
000270 6d de be 3f a9 3e 64 3e 31 75 24 bf c1 55 e5 3f
       1.4911629 0.22289528 -0.6424132 1.7916795
000280 cd 3d fc 3f b5 39 ac 3f 70 06 2a bf 43 97 53 3f
       1.970636 1.3455111 -0.6641607 0.8265268
000290 89 22 08 3d 30 62 74 be cc a1 dc be 43 4a 43 be
       0.03323606 -0.2386558 -0.4309219 -0.19071297
0002a0 d0 43 85 3c ba 5b ae 3e 8d c9 4c bf 9d e4 54 bf
       0.016267687 0.34054357 -0.7999504 -0.83161336
0002b0 ed a9 03 bf b1 35 83 3f e5 b7 89 3d d0 05 7a bf
       -0.5143116 1.025076 0.06724528 -0.9766512
0002c0 9f 1e 6c 3f c1 8b a1 3f 9d 99 a3 bf 7d 15 0f 3f
       0.92234224 1.2620775 -1.2781254 0.55892164
0002d0 24 41 85 3f ac 53 ee bd 9b a7 e4 3c fa 7e e4 3f
       1.0410504 -0.11637053 0.027911952 1.785125
0002e0 af c1 96 bf 9f 69 55 3f 10 74 1a 40 54 87 02 3f
       -1.1777858 0.8336429 2.413334 0.50987744
0002f0 df 7e 3d bf 74 c3 80 3f 02 82 a8 bf ab 40 0b c0
       -0.74021715 1.0059648 -1.3164675 -2.175822
000300 dd a0 01 3f 20 f6 7a bf 48 d0 98 3d 59 be 19 3e
       0.5063608 -0.98031807 0.074616015 0.15014018
000310 2a b7 57 40 32 e1 11 3f 75 d2 05 3f a9 7b 01 3f
       3.3705544 0.56984246 0.52274257 0.50579315
000320 22 f0 3d c0 9e 1f dc 3f 85 79 a4 be 56 64 63 3f
       -2.9677815 1.7197149 -0.32123962 0.88824975
000330 e5 75 02 40 1e 41 56 be c8 83 26 3e 73 28 6e 3e
       2.0384457 -0.20923278 0.16261208 0.23257618
000340 84 a2 1d 3f 2b 0b ad bf 05 73 55 3e 7b 13 03 3f
       0.61576104 -1.3519033 0.20844658 0.512016
000350 7a ab 3c bf 90 f2 84 bf e5 7d a1 bf 32 bd 26 bf
       -0.7369915 -1.0386524 -1.2616545 -0.6513244
000360 5e 83 73 3f 72 91 dc 3e 41 2d a0 bd 08 27 cc 3f
       0.95122325 0.43079716 -0.078211315 1.5949411
000370 bd d0 83 3e e9 e2 82 bf f8 e0 71 3f 8b 6e 59 3f
       0.25745192 -1.0225497 0.944839 0.849343
000380 aa 65 d5 3f c4 a4 cf bc df c7 d6 3f 65 6f 79 3e
       1.667165 -0.025347121 1.6779746 0.243589
000390 10 9e bc 3f f7 00 97 3e e3 c8 41 bf 8a e1 8b bf
       1.4735737 0.29492924 -0.75697154 -1.0928204
0003a0 76 e2 9a bf ed f1 84 bf 12 08 9e bf 76 14 40 bf
       -1.210036 -1.038633 -1.2346213 -0.7503122
0003b0 91 bf 76 3f 65 ff ea bd 7d 46 4a be 21 30 57 3f
       0.9638606 -0.11474494 -0.19753452 0.84057814
0003c0 32 34 00 40 a1 11 97 bf 48 22 67 3f 4b 1d ab 3e
       2.0031857 -1.1802255 0.90286684 0.33420786
0003d0 39 52 98 3f 06 65 92 3f b9 45 94 bf b2 05 be bd
       1.1900092 1.143708 -1.1583778 -0.0927843
0003e0 b0 6c 8d bf 3f d6 1e be e3 19 25 c0 6f 3c 00 40
       -1.1048794 -0.15511416 -2.579705 2.0036886
0003f0 0b 26 0c c0 26 13 88 bf 88 49 aa 3f 50 e5 e9 bf
       -2.189822 -1.0630844 1.330369 -1.8273106

encoder.lstm.bias_ih_l0 f4 [192]
000000 86 08 33 3f fa c5 c2 be 52 5b 17 bf 30 78 a9 bf
       0.6993488 -0.3804167 -0.5912372 -1.3239803
000010 d7 24 ff 3e 84 ff f1 3f 5d 75 97 3f 46 b4 4e bf
       0.49832794 1.8906102 1.1832691 -0.80743825
000020 51 93 fe 3f 66 f2 2a c0 7c 78 57 3f 81 d5 bb 3e
       1.9888707 -2.6710448 0.8416822 0.36686328
000030 02 7e e9 3f 92 3d ee 3f 0d 7c 40 3f f6 0f 26 40
       1.824158 1.861254 0.75189286 2.5947242
000040 ad d5 31 bf ba 82 5c 3f 14 a1 27 bf f8 45 60 bf
       -0.6946667 0.8613697 -0.6548016 -0.87606764
000050 25 c3 d1 bf 5e 30 ad 3f 5c fa ef 3d c9 14 07 40
       -1.6387678 1.3530385 0.11717674 2.1106436
000060 45 0a a5 3d 77 ee b8 bf c9 70 d3 3f 95 46 17 bf
       0.080585994 -1.4447774 1.6518794 -0.59092075
000070 ec 7c 59 bf e5 54 ba 3f c6 48 73 bf de c8 e3 3f
       -0.8495624 1.4557158 -0.9503292 1.7795675
000080 4f 76 96 bf a0 69 03 bf e5 60 4a 3f 58 1c d3 3e
       -1.1754855 -0.51333046 0.790541 0.41232562
000090 d0 a9 fd bf 27 e1 74 3f 8c e5 d3 3f 30 64 11 40
       -1.9817448 0.95656055 1.6554427 2.27174
0000a0 31 be c3 bf 6f 2b f4 3f 2f 4f 12 c0 ee 2e f0 3e
       -1.5292417 1.9075755 -2.286083 0.46910805
0000b0 07 ba 84 bf 0b 20 d1 bd 24 3c 15 c0 ab b0 6e 3f
       -1.0369271 -0.1021119 -2.3317957 0.93238324
0000c0 e6 d2 86 bf 23 c0 64 bf 8c 57 f8 be de e0 4d bf
       -1.0533111 -0.8935568 -0.48504293 -0.80421245
0000d0 09 9a 82 bf 73 7b 9f 3f db 43 a2 3f 17 64 00 bf
       -1.0203258 1.2459549 1.2676958 -0.50152725
0000e0 0f 21 28 3f 19 ce f1 be 3d fd a5 bf 15 b3 70 3f
       0.65675443 -0.47227553 -1.2967907 0.9402326
0000f0 fe b3 dc 3f c4 68 82 bf 0d 81 65 bf b2 1e 8d 3f
       1.7242429 -1.0188222 -0.8965004 1.1024992
000100 36 84 64 bf 9e 7f bb 3f 14 48 7d bf 1d 0b 56 bf
       -0.8926424 1.4648321 -0.9893811 -0.8361071
000110 48 6f 4a bf d5 fb 39 3f d3 c9 33 3f 42 b7 89 bf
       -0.7907605 0.7264989 0.70229834 -1.0759051
000120 4d 4b 3d bf f1 e4 43 bf 27 d1 fc bf d8 de 6d bf
       -0.73943025 -0.7652121 -1.9751328 -0.9291816
000130 c0 e5 7e bf 55 3f 30 3f 39 2b 28 bf 1d bb 1b bf
       -0.9956932 0.68846637 -0.6569095 -0.6083239
000140 6d 93 ee be 64 e2 fd 3f 18 a6 44 bf 63 e4 e3 3f
       -0.46596852 1.9834714 -0.7681594 1.7804073
000150 28 e2 9b 3c 11 b3 7b 3f 06 51 6d bf b1 6d 89 bf
       0.019028738 0.9832011 -0.92701757 -1.07366
000160 c0 5d 13 3f ca 8b e9 bd f9 40 d5 be cd 3f 88 3f
       0.57564926 -0.11403616 -0.41651133 1.064447
000170 5b b7 26 bf 6e 1e 7f be 7b 99 3e bf 5d be 7c 3f
       -0.6512353 -0.24913952 -0.7445294 0.9872797
000180 b8 e2 45 3f eb 6f c0 bf 0b 3b 19 3f 9c b6 c2 bf
       0.7729907 -1.5034155 0.5985572 -1.5211978
000190 33 dc 8a 3f 46 14 d6 3f ee 77 2f bf 1c f0 98 3e
       1.084845 1.6724937 -0.68542373 0.2987069
0001a0 09 b7 96 bf 5b de 36 bf 1b ab 06 3f 87 be 79 3f
       -1.1774608 -0.7143304 0.52604836 0.97556347
0001b0 39 6a fa bf 87 07 50 c0 15 8d a4 3e 8b f7 66 bf
       -1.9563667 -3.2504594 0.32138887 -0.9022147
0001c0 06 f0 c6 be d3 66 7c bf 29 4c 68 3f 97 b3 fb be
       -0.38854998 -0.985944 0.9074121 -0.49160454
0001d0 6b 1d 5b 3f d6 b4 37 bf ce b9 1e 3f 9b 46 e5 be
       0.85591763 -0.7176031 0.62002265 -0.4478043
0001e0 3e b9 37 bd 76 02 4e bf 0c 49 db 3f 53 36 6d 3f
       -0.044854395 -0.80472505 1.7131667 0.9266102
0001f0 a9 cd c7 3e 69 81 32 bf 2e 64 ff bf 9e 0c 40 40
       0.39024094 -0.69728714 -1.9952447 3.00077
000200 18 49 5c 3d ac 81 2a bf c1 14 bf 3f c1 45 32 bf
       0.053780645 -0.66604114 1.4928209 -0.69637686
000210 4f 8d 05 bf 53 66 8d bf c1 df e0 bf 34 e6 bf bf
       -0.52168745 -1.1046852 -1.7568284 -1.4992127
000220 28 25 14 3f a6 97 25 bf ab 19 b9 3e a7 d6 6c bf
       0.57869196 -0.6468452 0.36152396 -0.92515033
000230 56 15 32 3f 6c 0c 15 bf 9b 40 ed 3f 82 f3 a5 3f
       0.69563806 -0.5822208 1.8535341 1.2964938
000240 0a fc b2 3f 50 40 8e bf c5 73 d1 bf 3f 62 0b be
       1.3983166 -1.1113377 -1.6363455 -0.13611697
000250 a6 cc ad 3e b3 5d 37 40 49 17 8a bf d2 9c 0a 3f
       0.33945197 2.865094 -1.0788356 0.5414554
000260 31 a7 72 bf cc c7 a9 bf ff 86 24 3f 40 db d1 3f
       -0.94786364 -1.3264098 0.6426849 1.6395035
000270 9b ff c0 3f a4 a5 75 3f dd 6a ff bf 47 9f c7 3d
       1.5078005 0.9595587 -1.9954487 0.097471766
000280 ec 2f 27 c0 56 f8 27 40 85 17 93 bf e1 a8 1b bf
       -2.6123 2.6245322 -1.1491553 -0.60804564
000290 13 2f ae bd b9 48 f3 bf 5e 5f 1d bf ab d2 44 3f
       -0.085050724 -1.9006568 -0.61473644 0.76883954
0002a0 a3 6f fd be 25 f9 c5 bf cc 62 97 3f 04 b5 b2 bf
       -0.49499235 -1.5466658 1.1827025 -1.3961492
0002b0 28 8e 25 c0 6b b9 e2 be f1 b0 76 bf 62 17 07 3f
       -2.5868015 -0.44282088 -0.9636374 0.52770054
0002c0 c9 f7 11 c0 18 3c b8 3f c6 db 3d bd ec e9 4c 40
       -2.2807486 1.4393339 -0.04635217 3.2017775
0002d0 06 5d 9b bf 18 42 2d 3f 19 5d 99 3f 6e 14 16 40
       -1.2137764 0.67678976 1.1981536 2.344997
0002e0 76 6b d6 bf 60 45 36 bf 08 03 c2 bf 37 21 46 3e
       -1.6751544 -0.7119961 -1.5157175 0.19348608
0002f0 83 d3 8d bf a1 58 6b c0 5f e6 18 3e 4f 01 a2 3f
       -1.1080173 -3.6772845 0.1493163 1.2656649

encoder.lstm.bias_hh_l0 f4 [192]
000000 57 c6 0f 3f dc 67 97 be 63 71 d7 be 3a 39 b2 bf
       0.5616202 -0.29571426 -0.42078695 -1.3923714
000010 2f d6 28 3f 23 6c e0 3f a2 8b 83 3f b3 d4 7c bf
       0.6595182 1.7533001 1.0276988 -0.98762053
000020 6c 7e f5 3f d2 3e 2e c0 7f ec 47 3f 64 ca b7 3e
       1.9179206 -2.7225842 0.7809524 0.358966
000030 e7 ef e3 3f 78 56 e7 3f 03 35 41 3f 4e 66 22 40
       1.7807587 1.8073263 0.75471514 2.5374942
000040 56 34 2a bf ad d0 7e 3f f4 98 2e bf de 30 52 bf
       -0.6648611 0.99537164 -0.6820214 -0.82105815
000050 49 d7 ea bf 29 50 a1 3f 0a 98 28 3d 39 98 04 40
       -1.834695 1.2602588 0.04116062 2.071791
000060 40 7b b3 3e 80 dc ba bf 48 df d8 3f 5d 07 08 bf
       0.3505497 -1.4598541 1.694314 -0.53136235
000070 b1 33 2e bf 08 aa bb 3f 90 52 70 bf 12 0d ea 3f
       -0.68047625 1.4661264 -0.9387598 1.8285239
000080 30 5f 81 bf f8 8b 15 bf 23 0e 37 3f 3e c3 3b 3e
       -1.0107174 -0.584167 0.71505946 0.18336198
000090 3b 59 0e c0 45 12 65 3f 21 04 ec 3f f9 c2 04 40
       -2.2241962 0.89481 1.843876 2.0744002
0000a0 ec de c7 bf 21 d9 fb 3f b8 af 0f c0 03 92 d6 3e
       -1.5614905 1.9675637 -2.2451 0.41908273
0000b0 6b 96 7a bf 40 12 ce bd 1e 7f 14 c0 b4 20 8d 3f
       -0.9788577 -0.10062075 -2.3202586 1.1025605
0000c0 7b b2 89 bf a5 b4 59 bf 2c f2 db be 6a 40 71 bf
       -1.0757593 -0.85041267 -0.429582 -0.94238913
0000d0 3f c7 91 bf a6 9b b0 3f dd 95 b8 3f cc 12 39 bf
       -1.138893 1.37975 1.4420735 -0.72294307
0000e0 ef 3a 10 3f 55 3f 06 bf 98 76 8b bf 18 d6 6f 3f
       0.56339926 -0.52440387 -1.0895567 0.93686056
0000f0 05 b4 c8 3f 9a 17 99 bf e8 dc 64 bf b3 0c 60 3f
       1.5679938 -1.1960328 -0.89399576 0.8751938
000100 96 7b 8a bf c2 cb b8 3f de 72 93 bf 6c 87 60 bf
       -1.0818965 1.4437182 -1.151943 -0.8770664
000110 b2 d4 47 bf 7f e6 48 3f 15 6e 4a 3f 07 13 88 bf
       -0.7805892 0.7847671 0.7907422 -1.0630807
000120 d6 88 3e bf 5f 3a 5d bf 75 2e fe bf 5c 7b 77 bf
       -0.74427545 -0.8641719 -1.9857928 -0.96672606
000130 ea cf 56 bf b0 68 29 3f 6d 1e 37 bf 25 b8 1f bf
       -0.83911 0.66175365 -0.715308 -0.6239036
000140 72 a0 ce be a7 a7 fd 3f 85 29 02 bf d1 4b cf 3f
       -0.40356785 1.9816788 -0.50844604 1.6195012
000150 45 dc 80 bd 0a 6c 8d 3f 31 57 6c bf f3 f5 82 bf
       -0.06292013 1.1048596 -0.92320544 -1.0231308
000160 7f af 01 3f 0e cc 3f be 52 45 dd be 70 14 6a 3f
       0.5065841 -0.18730184 -0.4321695 0.91437435
000170 93 20 24 bf 48 37 6d be 8a 22 43 bf a4 a7 72 3f
       -0.64112204 -0.2316562 -0.7622458 0.9478705
000180 81 a4 66 3f cf 40 c4 bf 89 6c 18 3f a5 85 ac bf
       0.90094763 -1.5332278 0.5954061 -1.3478285
000190 92 39 98 3f f4 4d c4 3f e6 8e 47 bf 69 02 81 3e
       1.1892569 1.533629 -0.7795242 0.2519715
0001a0 f0 90 7a bf 32 7a 28 bf 2c 94 23 3f 1e 5f 46 3f
       -0.9787741 -0.65811455 0.6389797 0.7748889
0001b0 88 ed f8 bf ff dd 50 c0 d2 ac 61 3e 88 f0 43 bf
       -1.9447489 -3.2635496 0.22038582 -0.76538897
0001c0 b5 88 a9 be d3 95 86 bf 19 93 84 3f 54 d3 91 be
       -0.33112112 -1.0514473 1.0357391 -0.28481543
0001d0 64 b1 42 3f 2a 37 10 bf be ce 36 3f 77 2c 13 bf
       0.76051927 -0.56334174 0.71409214 -0.5748972
0001e0 81 af 11 be 7d be 79 bf 7b 4a d8 3f 60 0f 7a 3f
       -0.14227106 -0.9755629 1.689773 0.9767971
0001f0 32 22 da 3e d5 4f 38 bf b5 61 ff bf 84 37 46 40
       0.42604214 -0.71996814 -1.9951693 3.0971384
000200 08 8a 03 3e d5 df 36 bf 45 ae d3 3f da c1 31 bf
       0.12845623 -0.7143529 1.6537558 -0.6943642
000210 4c 6d 1a bf c6 e7 8d bf 79 d1 df bf 40 28 b7 bf
       -0.60323024 -1.1086357 -1.7485801 -1.4309158
000220 8d 9c 16 3f a8 7e 00 bf ee 54 ec 3e 9b 4e 8c bf
       0.5883263 -0.5019326 0.46158546 -1.0961488
000230 7a b1 11 3f 63 a3 3f bf 8e 8e f4 3f 36 ea 9d 3f
       0.5691143 -0.74858683 1.9106004 1.23371
000240 4d 1b 94 3f 87 23 72 bf b9 c2 cf bf ac 33 9c be
       1.1570832 -0.9458546 -1.62313 -0.30508173
000250 02 61 88 3e a4 51 38 40 b2 63 94 bf 7d dd 07 3f
       0.2663651 2.879983 -1.1592925 0.5307234
000260 38 85 6b bf 0f 1e ab bf ee 2c 28 3f 99 40 d6 3f
       -0.9200015 -1.3368548 0.6569356 1.6738464
000270 53 8b b9 3f 14 dd 60 3f c2 a0 fe bf 02 da a4 3e
       1.4495643 0.8783734 -1.9892809 0.32197577
000280 93 12 22 c0 b7 9d 25 40 7b 0e 96 bf 9f 77 5d bf
       -2.5323837 2.5877512 -1.1723169 -0.8651065
000290 9c 5b c3 3d 0a b7 06 c0 49 32 2c bf 13 d9 48 3f
       0.095389575 -2.1049218 -0.6726423 0.7845623
0002a0 90 f9 e8 be 54 0f c8 bf 23 c7 86 3f ea a1 9b bf
       -0.455029 -1.5629678 1.0529522 -1.2158787
0002b0 8e 6a 27 c0 9b ee ce be 47 82 55 bf 73 ef dd 3e
       -2.6158786 -0.40416417 -0.8340191 0.43346748
0002c0 40 27 0d c0 68 79 c7 3f 00 49 06 3d 33 0c 50 40
       -2.2055206 1.5583925 0.032784462 3.2507446
0002d0 c9 79 9c bf 0c 90 47 3f dd 3e 98 3f d6 fb 1d 40
       -1.2224666 0.77954173 1.1894184 2.4684958
0002e0 bc 54 d1 bf a2 a5 51 bf 8f 5a b7 bf 51 d4 13 3c
       -1.6353984 -0.8189336 -1.4324511 0.009022788
0002f0 51 72 91 bf a5 0b 74 c0 f9 5b 43 3e d1 64 b1 3f
       -1.1363012 -3.8132107 0.19078054 1.3858892

encoder.lstm.weight_ih_l1 f4 [192, 48]
000000 89 3a 0f 3f 5c 56 55 3e 2c ee f0 3a c4 98 b1 3e
       0.5594869 0.20833725 0.0018381528 0.34686863
000010 cd 18 04 40 9b 46 2a bf 17 6d 0c bc b4 6c df 3d
       2.0640137 -0.66513985 -0.008570931 0.10909405
000020 d3 95 09 3f db 40 b1 bd 3e 73 aa 3f d9 e3 fd be
       0.5374424 -0.08654948 1.3316419 -0.49587896
000030 68 91 e9 be 52 c7 34 3f 07 e3 1f 3e b6 67 2d 3f
       -0.4561875 0.7061664 0.15613948 0.67736375
000040 37 6e 9a 3d e6 20 0b 3f 8f 86 8b bf 22 57 8d 3f
       0.07540553 0.54347074 -1.0900439 1.1042216
000050 02 57 ff 3e cd 9a c1 3f 0b 02 a7 bf 1d 9d a5 3e
       0.4987107 1.5125366 -1.3047498 0.3234643
000060 14 f6 4d bf 10 03 ff bf 74 17 c8 3e 4d 71 46 3f
       -0.8045361 -1.992281 0.39080393 0.77516633
000070 b6 4c 5d bf 79 3d 95 3f 2b 9e 50 3f a1 aa 0d bf
       -0.86445177 1.1659385 0.81491345 -0.55338484
000080 cf 6c 06 3f 93 b1 c3 3d 7d e8 8e 3f e3 54 58 bf
       0.5250978 0.09555354 1.11647 -0.84504527
000090 1d 30 27 40 ef 1c 84 3f 78 04 72 3f e3 c0 33 bf
       2.6123116 1.032133 0.9453807 -0.70216197
0000a0 70 31 4b bf 67 9a c5 3f 24 e3 8c bc 0f 98 6c 3f
       -0.7937231 1.5437745 -0.017198153 0.92419523
0000b0 e2 b6 a9 3f db 80 4b 3f 95 3c 23 bf 86 48 1b bf
       1.3258936 0.7949349 -0.63764316 -0.60657537
0000c0 5e c2 30 c0 00 a4 f0 3e bb f0 d5 40 19 84 85 3f
       -2.7618632 0.47000122 6.685636 1.0430938
0000d0 f7 c0 28 c0 b3 bb 13 bf 33 23 ba 3e f5 43 ae 3e
       -2.6367776 -0.5770828 0.3635498 0.34036222
0000e0 c0 12 9f 3f a0 87 85 40 fa bf bf 3f d3 84 86 bf
       1.2427597 4.172806 1.4980462 -1.0509285
0000f0 c1 a0 db bd 4f 39 dc 3e f4 19 59 40 20 12 13 3e
       -0.10724021 0.43012473 3.392209 0.14362383
000100 23 71 0c c0 2e f9 85 40 9e e3 5a 3f 13 94 5c 3e
       -2.1944053 4.1866674 0.85503566 0.21540861
000110 8f 6f 08 3f 96 75 2d 3f d7 a4 f4 3e 78 4d c6 bd
       0.53295225 0.67757547 0.47782013 -0.09682745
000120 bf 75 9a bf 21 a9 42 3e aa 2a 73 c0 5c 2b fb bf
       -1.2067183 0.1900983 -3.799479 -1.9622607
000130 6d 74 f0 40 9a 84 53 bf 0f f4 32 41 1b 73 0d 3e
       7.514212 -0.8262421 11.184585 0.1381344
000140 ff 64 d1 c0 3e e0 12 bf 12 33 19 c0 34 ff 13 3f
       -6.5435786 -0.57373416 -2.393742 0.57811284
000150 e4 30 a8 40 c7 50 ba 40 97 6e a1 3f 7b 7a bc 3f
       5.255968 5.8223605 1.2611874 1.4724878
000160 9a d1 a1 3e 03 8d 02 40 e5 36 e0 bd 3d 9f 30 3e
       0.31605226 2.0398567 -0.1094797 0.17248245
000170 d5 eb 94 3f d5 05 e1 bf 71 b6 13 3f 6b e8 67 bf
       1.163447 -1.7579905 0.5770026 -0.90589017
000180 5f 8c 11 3c 06 4f da 3f 99 4a 49 bf 77 16 21 3f
       0.008883565 1.7055366 -0.7862945 0.62924904
000190 06 70 9f bf 04 0a c4 bc f3 eb d0 3f 29 3c ea be
       -1.2456062 -0.023930557 1.6322006 -0.45749024
0001a0 43 b0 87 bf eb b5 71 3e 7d 90 43 3f 35 29 4a bf
       -1.0600666 0.23604552 0.76392347 -0.78969127
0001b0 4d c7 e7 3e 97 2a c0 3f e5 12 d2 be 40 35 ea 3e
       0.45269242 1.5012997 -0.4103004 0.45743752
0001c0 20 b0 11 c0 cd 4b 8c 3f d1 ce ca 3e 9d c5 0f bd
       -2.2763748 1.0960633 0.39610913 -0.035100568
0001d0 6c a8 35 bf e5 b6 16 be d3 59 09 3f e8 ca 53 bf
       -0.70960116 -0.14718206 0.53652686 -0.82731485
0001e0 50 a2 ea 3e 32 ee df bf 91 a7 1f 40 e7 85 67 40
       0.4582696 -1.7494566 2.4946024 3.6175478
0001f0 1b 2d 9b 3e 69 90 ef bd e6 53 6b 3f 79 5a 94 bf
       0.3030785 -0.11697466 0.91924894 -1.159011
000200 03 65 aa bf 19 ec 79 be ac 58 03 3f 04 ff 3a be
       -1.3312076 -0.2440647 0.5130718 -0.18261343
000210 8a 7c 98 3f a0 d0 90 3e fb 92 c1 be 43 dc 9d 3e
       1.1913006 0.28284168 -0.3780745 0.3083211
000220 87 69 5a bf 49 65 d1 be c5 b6 8e bf a8 c6 64 be
       -0.8531727 -0.40897587 -1.1149527 -0.22341406
000230 2a c4 22 bf f7 b7 8e bd 96 11 67 c0 47 7f ba be
       -0.6358057 -0.06968682 -3.6104484 -0.3642523
000240 55 a9 37 bf b6 14 78 bf 0a 8c 07 bf 79 c4 1e bf
       -0.71742755 -0.969066 -0.5294806 -0.62018543
000250 3e fc 4e be 08 0e 23 bf 90 1e 3a 3f 63 1b 74 3f
       -0.2021341 -0.63693285 0.72702885 0.9535429
000260 78 f0 7d 3f 32 29 1c bf af 43 15 bd 8c b7 6d bf
       0.9919505 -0.6100036 -0.0364415 -0.92858195
000270 40 be a1 3e 25 6c ef 3e 70 95 95 bc 34 5f e6 be
       0.31590462 0.46762195 -0.018259734 -0.4499451
000280 11 a8 e3 3e 3e 04 2a 3f 09 c5 6f be 4e 7c 46 3f
       0.44464162 0.66412723 -0.23415007 0.77533424
000290 2d b5 31 3f e4 c8 ca bc 86 75 d5 3d 3d 42 58 3f
       0.6941708 -0.024753995 0.104228064 0.8447607
0002a0 1a 9a d5 3e 4d ee 84 bf d1 5f 49 bf 74 66 15 bf
       0.41719133 -1.0385224 -0.7866183 -0.58359456
0002b0 cd 20 f5 be 43 4a 0c 3f 01 9b 5a bf d8 f4 2e 3f
       -0.47876588 0.54800814 -0.8539277 0.6834235
0002c0 3f 2c e2 be be f5 72 3f 12 dc dc 3e 32 b7 62 3e
       -0.44174382 0.9490622 0.4313665 0.22140196
0002d0 f9 f3 c7 3d ae 1f 24 bf d9 9d eb 3e fa 94 4d 3e
       0.09763331 -0.6411084 0.46018866 0.20076361
0002e0 5b 10 5b 3d 62 d9 31 3f 92 93 9c 3f aa 02 3c 3f
       0.053482395 0.69472325 1.2232535 0.73441565
0002f0 26 88 30 3f af 52 62 3f 5e bc da bf d7 ef af be
       0.68957746 0.88407415 -1.7088735 -0.3436267
000300 c8 48 59 3f 2b b5 c6 be 5e 41 50 3f 3d 63 8f 3f
       0.8487668 -0.38810095 0.8134974 1.120216
000310 c8 53 85 bf 01 91 73 3f f1 86 0e bf 2d de 39 be
       -1.0416193 0.95143133 -0.55674654 -0.1815116
000320 4e 93 a0 bf e2 f6 2a 3f 77 ec 12 be 00 7f f3 3e
       -1.2544954 0.66782963 -0.14348017 0.4755783
000330 74 73 9b bf ae 16 03 bf 36 7c bd 3e 40 32 34 bf
       -1.2144608 -0.5120648 0.37008828 -0.70389175
000340 f1 7c b0 3e 1c ab a9 be 6c 6d 48 3e 5a 8a 2d bf
       0.34470323 -0.3313836 0.19572991 -0.6778923
000350 c0 86 2a be 01 4b 9d be be 69 6c be c3 3f 43 bf
       -0.16652966 -0.30721286 -0.23087212 -0.7626917
000360 5e 02 9f 3d 66 0b ae 3e 45 0f 71 3e 41 c3 cd 3f
       0.077641234 0.3399307 0.23540981 1.6075212
000370 fc 2d 4a bf 8b 6a 74 bd d1 a0 cc 3e 30 87 41 3f
       -0.78976417 -0.05967192 0.39966443 0.75596905
000380 e0 9a 60 be 95 4e 2b bf 10 f7 af 3f 52 88 4e 3e
       -0.2193408 -0.6691678 1.3747272 0.2016919
000390 59 1d 60 be 0b fb 53 bf b2 82 98 3e 5e b7 b8 3d
       -0.21886195 -0.82804936 0.29787213 0.090193495
0003a0 0f 35 af 3e a3 6b 2a bf 15 0d f7 3e 47 9c a4 bf
       0.34220168 -0.6657049 0.48252168 -1.2860192
0003b0 2e e7 69 bf 52 cb 0a bf b7 51 c6 3f 47 5b 14 3f
       -0.9136838 -0.5421649 1.5493687 0.5795178
0003c0 75 8e da 3f b0 c3 ca 3f 4a 9d 83 3e 19 6f 39 3f
       1.7074724 1.5840969 0.2570594 0.72435147
0003d0 57 30 1f 3f 0d 12 74 3f da 3f f2 bd 2f 83 d8 bf
       0.62183136 0.95340043 -0.11828585 -1.6915034
0003e0 3e 31 ca bd eb 89 8e 3f 5b 96 0e be 1d cc a1 3f
       -0.098726735 1.1135839 -0.13924544 1.2640415
0003f0 98 1e 96 bf 09 bc fd bf a4 c0 75 bf af ce 6a 3f
       -1.1728086 -1.9823009 -0.9599707 0.91721624

encoder.lstm.weight_hh_l1 f4 [192, 48]
000000 b2 e7 25 be 15 2b 1f 3f b3 14 1f 3f 7c 9e 79 40
       -0.16201666 0.6217511 0.6214096 3.900298
000010 e5 b2 52 bf f6 59 1b 3f 5a 9a 12 bf 96 d4 52 40
       -0.8230422 0.60684144 -0.5726677 3.2942252
000020 a8 6f 08 3f de d6 e6 be 5d 7f f8 be 8b b0 59 3f
       0.53295374 -0.45085806 -0.4853467 0.8503501
000030 28 c8 57 bd 1c 63 b5 3e 75 29 5b bf 28 60 08 3e
       -0.05268112 0.35427177 -0.85610133 0.1331793
000040 fb d7 9c 3e 7e d4 c7 3e 94 6d 18 40 a4 0c 4d be
       0.3063353 0.39029306 2.381688 -0.20024353
000050 01 43 37 3d c7 9b e2 3e df 6c 73 bf b7 f8 f2 3d
       0.044741634 0.44259474 -0.95088 0.11863845
000060 6b 0e 04 c0 e0 3d 44 be c3 5c 02 3e e3 c0 44 3f
       -2.06338 -0.19164228 0.12730698 0.7685682
000070 32 f1 34 3f 09 28 07 bf a0 40 19 bf 81 7b 8a bd
       0.70680535 -0.52795464 -0.59864235 -0.06761838
000080 48 ee 5b bf 37 56 d4 3d 44 61 a6 be 7a c8 4b 3f
       -0.85910463 0.10368007 -0.32496083 0.7960278
000090 e0 b9 7f bf ca 33 33 3e 2a 59 e5 3f a9 76 bb 3f
       -0.99893 0.17500225 1.7917836 1.4645587
0000a0 88 8b 2b 3f c5 24 63 bf 42 c8 4b 3e 73 18 3a bf
       0.6700978 -0.8872798 0.19900611 -0.72693557
0000b0 29 a5 19 bf 84 fd 58 bf 37 57 b3 3f 7d fc 05 3f
       -0.6001764 -0.84761834 1.4010991 0.5233839
0000c0 cf d2 56 bf 04 2b 60 40 96 ba 90 3f 12 c1 45 41
       -0.8391542 3.5026255 1.1306942 12.359636
0000d0 9d 7e 56 3f ff d8 91 3f f2 47 46 3e 03 38 0c 41
       0.83786947 1.1394347 0.19363382 8.763675
0000e0 61 46 15 40 6a dc eb 3d 64 2e 35 bf b1 f6 80 3f
       2.3324206 0.1151665 -0.7077391 1.0075284
0000f0 0a a5 80 3f 23 e2 0a 40 1d cb de 3a 38 87 aa bf
       1.0050366 2.1700523 0.0016997788 -1.3322515
000100 03 48 00 40 34 80 97 bd 4c 7c 29 c0 40 8c 4d bf
       2.0043952 -0.073975 -2.6482115 -0.8029213
000110 20 f7 3a 3a b3 d2 12 3f fd b5 17 3e 41 1e 2d 3f
       0.00071321614 0.5735275 0.14815517 0.6762429
000120 7d 9c b9 40 b4 bd a7 be 84 f6 b2 be 59 3a 6b 3f
       5.8003526 -0.3276192 -0.34953701 0.91885906
000130 cc 0d 42 3f 95 78 08 bf 60 32 d2 3f b6 b3 69 bd
       0.758023 -0.53308994 1.6421623 -0.05705615
000140 71 a5 a6 3e 3d 17 f1 c0 fa 6d 17 3e 5b f9 a5 3e
       0.32548097 -7.5340867 0.14788046 0.32416806
000150 2e ab a5 c0 30 0e 9c c0 d3 c0 61 c1 26 80 b8 c0
       -5.177146 -4.876732 -14.109576 -5.765643
000160 d9 48 14 3f 04 32 df be 0f f2 53 40 4a d4 42 bf
       0.57923657 -0.43592846 3.311649 -0.7610518
000170 7d 0a c6 3f 4b fe 8f c0 fd 9e 3d c0 1f 3b 73 3e
       1.5471951 -4.4997916 -2.9628289 0.23753022
000180 d2 68 28 3f e4 37 4d 3e 93 70 7f bf c6 0d 92 bf
       0.65784943 0.20040852 -0.9978115 -1.1410453
000190 ba 78 87 3f 2d d0 09 c0 69 ff 31 3f 4d 7c 8c c0
       1.0583718 -2.153331 0.6953035 -4.3901734
0001a0 64 2e 29 3f 65 ef db bd e8 5c 2a 3f 38 1e 27 3f
       0.6608641 -0.1073902 0.66548014 0.65280485
0001b0 74 45 50 be 6b 99 cf be 9b 91 da 3e 4c 04 82 be
       -0.20338994 -0.40546736 0.42689213 -0.25393903
0001c0 b0 dd 40 bf 90 e2 c2 bd b2 0f 1d bf 2b 17 19 3f
       -0.7533827 -0.095158696 -0.61352074 0.59800977
0001d0 59 38 9a bf 53 ea 94 bf 6d b5 a0 bd d7 d2 cc 3f
       -1.2048446 -1.163401 -0.07847104 1.6001843
0001e0 1d 2b 0c bf e2 95 8d 3e 3a cf 61 3e 6e dc 75 3c
       -0.54753286 0.27653414 0.22051707 0.015006168
0001f0 09 72 d8 be 29 00 85 3f 23 7b a5 bf 98 fe b4 3e
       -0.42274502 1.0390674 -1.2928203 0.3535049
000200 a4 bf 3c be f6 62 8a bf 10 d3 24 3f c7 2a 4b bc
       -0.1843248 -1.081145 0.64384556 -0.012400336
000210 25 ce ff 3f 83 98 fb bd ff 6d 82 bf 3a b1 1a 3c
       1.9984785 -0.12284949 -1.0189818 0.009441668
000220 eb ca 96 3d b4 cf 46 3e 09 86 8b be eb 46 ca 3d
       0.07362922 0.1941517 -0.27250698 0.09876808
000230 ab 9c ab be 12 e8 05 40 54 af fe 3c 22 25 05 3f
       -0.33517966 2.0922894 0.031089462 0.52009785
000240 fe 25 f8 3e 34 78 27 bf 3b 3d 4a bf 13 e2 f8 3e
       0.48466486 -0.6541779 -0.7899968 0.4860998
000250 75 67 3c 3f 5f 67 99 be ae 33 d7 be 29 83 f0 bf
       0.7359536 -0.29961678 -0.42031616 -1.8790027
000260 96 74 db be f5 63 83 be 79 6e eb 3e 36 e2 be be
       -0.42862386 -0.256622 0.4598272 -0.3728196
000270 f9 86 97 bf 73 e5 28 bf f9 03 61 bf 88 21 8b 3f
       -1.1838065 -0.6597511 -0.87896687 1.0869608
000280 07 4f a7 be 70 bd 18 3b 09 2e 06 bf 1a 24 43 be
       -0.3267748 0.0023306273 -0.52413994 -0.1905674
000290 69 b1 41 3e 51 cc 6f be fc c0 b1 3e 5c c1 24 bf
       0.18915333 -0.23417784 0.34717548 -0.64357543
0002a0 dd 13 95 bd 76 61 6d be 29 ea 42 3f 95 78 00 bf
       -0.07279179 -0.2318171 0.7613855 -0.50183994
0002b0 25 be c0 3e 68 b2 e7 be 6b d3 01 3f 8f d6 a9 be
       0.3764507 -0.452533 0.50713223 -0.33171508
0002c0 c1 44 d4 3e dd d8 44 3d c7 f9 f7 be 5f 23 46 3f
       0.41458705 0.04805838 -0.48432752 0.7739772
0002d0 23 9f 89 3d ae e4 a2 bb ee ef 2d 3f 12 6a c7 be
       0.06719806 -0.0049711084 0.6794423 -0.38948113
0002e0 4c 93 26 bf 24 69 62 bf c0 73 b2 be b9 c0 0b 3f
       -0.6506851 -0.8844168 -0.34853935 0.54590946
0002f0 d8 71 1c 3e d9 6d 2c 3e 0b 27 43 bf 5f 0c 41 3f
       0.15277803 0.16838779 -0.7623145 0.754095
000300 ac 19 82 3f ab e4 2c 3f 7d 8e 2c bf 6f 21 10 bf
       1.0164084 0.6753642 -0.6740492 -0.56301016
000310 48 31 19 bf a7 88 5e bf c9 91 3e 3e a1 e4 29 be
       -0.5984082 -0.86927265 0.186103 -0.16591121
000320 06 18 11 3e b9 23 76 bf 7c 3d 84 3d 10 9b 15 bf
       0.1416932 -0.9614826 0.0645704 -0.5843973
000330 51 1f 60 bf 21 4e 8f bd b6 f7 aa bc 60 e0 2c 3f
       -0.87547785 -0.06997324 -0.02087007 0.6752987
000340 f2 22 4e bf b0 c8 7a bf f3 7f 66 bf 2b 2d 4f 3f
       -0.8052207 -0.97962475 -0.90038985 0.80928296
000350 03 b1 86 bf 35 7b 8c bf 5f 3d 7d 3f 6a b1 84 3c
       -1.052277 -1.09751 0.9892177 0.016197879
000360 62 74 4a 3f 85 36 2a bf 28 21 a8 be 3e b5 78 bf
       0.79083836 -0.6648944 -0.32837796 -0.97151554
000370 e1 ed 0a 3f 0c 8b f2 3e b6 5d 7c 3f d1 30 04 bf
       0.54269224 0.4737171 0.9858049 -0.5163699
000380 02 f1 2c 3f c2 e4 2b bf 0d 0e 15 bf 62 50 88 3d
       0.6755525 -0.6714593 -0.58224565 0.06655957
000390 99 6c 81 3e 47 06 97 be 3c 3e e5 3f de 2e 39 bf
       0.25278166 -0.29496977 1.7909617 -0.7233714
0003a0 c8 f8 fd be 9a df fa 3e 24 2e 5a 3e da 24 d6 3e
       -0.49603868 0.4899872 0.21306664 0.4182499
0003b0 d8 05 46 3e be b7 f0 3e 84 1b aa be 6b e8 71 3f
       0.19338167 0.47015184 -0.33224118 0.94495267
0003c0 e2 67 b8 3e fc ff f2 3e 84 08 95 bf 7c de 69 bf
       0.36016756 0.47460926 -1.1643224 -0.9135511
0003d0 1c ca d2 3f f0 35 e9 bf 8f df 01 bf 77 18 71 3e
       1.6467929 -1.8219585 -0.5073175 0.23544489
0003e0 5a 30 ec be fa 35 11 bf c4 69 b7 be d7 07 cc be
       -0.4613064 -0.56722987 -0.3582288 -0.3984973
0003f0 31 1f 78 bf 3b 6b 23 bf ac 20 70 bd 07 45 01 bf
       -0.96922594 -0.63835496 -0.05862491 -0.5049595

encoder.lstm.bias_ih_l1 f4 [192]
000000 4c 3f 2b bf a4 f0 a7 bf c1 c6 f8 bd e0 61 b3 be
       -0.6689346 -1.3120313 -0.12147284 -0.3503561
000010 8b c2 66 3f 76 55 a5 3e 1c 9d b9 3e d7 a5 b3 3f
       0.901406 0.32291764 0.36252677 1.4034985
000020 bc 2a 66 bf fc 58 b9 3d 77 f8 09 3e c7 59 05 3f
       -0.8990896 0.090501755 0.13473688 0.52090114
000030 34 66 2e 3f 44 5b 3d be 04 c3 6a bf 40 c6 c3 3e
       0.681247 -0.18491846 -0.9170382 0.3823719
000040 bc 30 63 3f 1d c8 22 bf 93 5a a6 3e 40 84 2b 3f
       0.8874624 -0.635866 0.32490978 0.6699867
000050 b2 a4 d3 be e0 15 e4 bd 49 fe a8 be e5 4c 43 3f
       -0.4133659 -0.11136985 -0.33006504 0.76289207
000060 77 8d c0 3e e3 1c 1d 3e 87 15 13 bf 4b be 1d 3f
       0.3760793 0.1534305 -0.57454723 0.6161849
000070 42 8a 92 bd 38 54 a5 bf 2c 24 03 be cd bd 50 bf
       -0.07155277 -1.2916327 -0.12806767 -0.81539613
000080 9d 85 ba 3e 51 48 17 bf 4e 40 94 bf df 04 47 bf
       0.36430064 -0.5909472 -1.1582124 -0.7774181
000090 07 b2 32 3f 61 a5 82 3e 4c 8d b6 be f7 da a5 bf
       0.698029 0.255168 -0.35654676 -1.2957448
0000a0 aa 99 b2 bf 2b 56 2a bf be 85 88 3f 88 c2 8e bf
       -1.3953145 -0.6653773 1.0665815 -1.1153116
0000b0 6b 12 9b 3f 08 2e de 3e c4 09 c5 3e 9d 09 38 bf
       1.2114996 0.43394494 0.38484013 -0.7188967
0000c0 79 d9 1f bd ba 0f f5 be 78 8b 0b 3e 5f b3 9f 3e
       -0.039025757 -0.4786356 0.13627422 0.31191537
0000d0 1a e8 31 bf 7f db ec 3e 6b 8f c6 be bd 33 6d bf
       -0.69494784 0.46261212 -0.38781294 -0.9265707
0000e0 af e7 b6 bd 3e 2d 54 be 7b 6e 42 bf 7a de 12 be
       -0.08930909 -0.20720384 -0.7594983 -0.1434268
0000f0 ba db 00 3f d1 95 62 bf fd 5e 05 bf d8 71 b6 bd
       0.50335276 -0.8850985 -0.52098066 -0.08908433
000100 d4 bb 46 3f 07 18 2d bf d8 9d 8a 3e 41 12 45 3f
       0.7763035 -0.6761479 0.2707355 0.7698098
000110 d3 10 13 bf 40 f5 4e 3f a9 82 2d bf db 8c 5d 3e
       -0.57447547 0.8084297 -0.67777497 0.21635763
000120 ab f3 7b bf bf ac 78 3f ef 62 45 bf 41 99 5f 3e
       -0.9841868 0.9713859 -0.77104086 0.21835805
000130 46 90 9e 3f cb a4 53 bf 47 5d 1a 3f f7 c5 7f be
       1.2387779 -0.8267333 0.6029858 -0.24977861
000140 2f 3e 64 bf 8c b5 7f 3d 62 e4 d1 3e 92 7a cf be
       -0.89157385 0.062428996 0.40994555 -0.405232
000150 b3 e9 80 bf 0e 10 bd 3f a8 8c 31 bd 08 f6 f3 3e
       -1.0071319 1.4770525 -0.04334703 0.47648644
000160 8e 58 2c bf 52 63 51 bf cf bf 9d be bf d6 14 bf
       -0.67322624 -0.81792176 -0.308104 -0.58140177
000170 dd fb 1f bd 17 ee 82 bf e8 56 d2 3e 1c 79 73 bf
       -0.039058555 -1.0228909 0.4108193 -0.95106673
000180 8b 9f f9 be 03 e7 b9 3c 92 3d e5 be 11 ba 3e 3f
       -0.48754534 0.022693163 -0.44773537 0.74502665
000190 2f 07 7a 3e 9f 65 3e be 3f 43 36 bf 50 8d 63 bc
       0.24416803 -0.18593453 -0.7119636 -0.013888672
0001a0 9f 96 1f bf b1 2b 58 3f 20 22 ed 3d da be af bf
       -0.62339205 0.8444167 0.115787745 -1.3730118
0001b0 74 b9 57 bf e6 58 de be b0 3a ae bd be 55 41 3f
       -0.84267354 -0.434272 -0.085072875 0.7552146
0001c0 0a 40 59 bf a7 3e 1d 3f b5 18 28 bf aa 91 72 3f
       -0.8486334 0.61423725 -0.656627 0.94753516
0001d0 85 f7 e0 be 56 78 39 bf ae 57 6d be dd f3 53 bf
       -0.43938842 -0.72449243 -0.23177978 -0.8279398
0001e0 ec 5c 79 3e 47 6c 41 3f 87 29 4c 3e b3 2b fc be
       0.24351853 0.75555843 0.19937716 -0.4925209
0001f0 2b 4b 28 3f 6d 47 5a bf b1 e9 71 3f e9 b5 04 3f
       0.657397 -0.8526524 0.9449721 0.5184007
000200 29 7a 04 bf 73 c4 05 3f f2 06 36 3f 17 9b cf 3e
       -0.517489 0.5225288 0.7110435 0.40548012
000210 a4 eb 2d bf f2 3a 2a be 45 eb 37 3f d5 13 c0 3e
       -0.67937684 -0.16624048 0.7184337 0.3751513
000220 cd 3f 12 bf 53 a6 d4 bd 9b ef 56 3f fc d5 38 3f
       -0.571286 -0.10383286 0.8395936 0.72201514
000230 be 8f 8c bf b0 f6 e3 be ab e4 55 bf c5 cf 22 bf
       -1.0981367 -0.44524145 -0.83552045 -0.6359828
000240 9f a5 3a bf 69 0a 45 3f 06 05 11 3f 63 4c 64 bf
       -0.7290897 0.7696901 0.5664829 -0.89179057
000250 5a a7 0b 3f 06 9c d1 3e 8d dc 2f 3f 8a e6 3c 3f
       0.54552233 0.4093935 0.6869591 0.73789275
000260 d7 be 36 bf 80 e4 f3 3e 1a d3 07 be 98 98 32 be
       -0.7138495 0.4763527 -0.13264123 -0.17441022
000270 13 2e 41 3f da 86 6a bf 12 8f 39 bf a2 ea 15 3f
       0.7546093 -0.9161202 -0.7248393 0.58561146
000280 2c 68 5d 3f 6f 83 3c bf 15 e1 3c be dc fe 73 3e
       0.8648708 -0.7363805 -0.18445237 0.2382769
000290 a9 46 8c be 61 e9 9d be 8f 22 c0 be 52 3f f8 3e
       -0.2739766 -0.30842116 -0.37526366 0.4848581
0002a0 fe 7c f8 3e 36 44 1f bf a3 9b fe be 1e 29 f7 3e
       0.4853286 -0.62213457 -0.49728116 0.48273557
0002b0 53 7c e9 3e bc 13 f6 bd 82 04 82 3f e3 06 12 bf
       0.45602664 -0.12015483 1.0157626 -0.5704176
0002c0 00 d2 9f be 2f e2 3c be 80 54 96 bf da 43 16 bf
       -0.31214905 -0.18445657 -1.1744537 -0.58697283
0002d0 07 e2 84 3e e0 47 0f bf 66 4e 51 bf 64 43 66 bf
       0.25953695 -0.5596905 -0.8176025 -0.8994658
0002e0 d7 a6 1e 3d d0 2e 32 bf 2e 64 76 3f 66 96 c7 be
       0.03873333 -0.6960268 0.9624661 -0.38981932
0002f0 2a 34 97 3f cc 1c 4d 3f a6 a3 08 bf 8e ed 18 bf
       1.1812794 0.80122066 -0.5337471 -0.5973748
